DQN/trained.pth (torch, 6999 bytes, 6 tensors)

net.0.weight f4 [32, 4]
0	0xbdc0d377	-0.09415334
1	0xbe1bffb6	-0.15234265
2	0x3efe1275	0.49623457
3	0xbce1e03f	-0.02757275
4	0x3e0d4533	0.13795929
5	0xbc720ec2	-0.014774026
6	0xbc0e3efe	-0.008682011
7	0xbcb7a5c5	-0.022417912
8	0xbe3b7109	-0.18304838
9	0x3db35420	0.0875628
10	0xbe1a9390	-0.15095353
11	0xbc2b0025	-0.010437046
12	0xbe0889b6	-0.13333783
13	0x3e3706ee	0.17873737
14	0xbe0f80a4	-0.14013916
15	0x3e3ba196	0.18323359
16	0x3e71c85e	0.2361159
17	0xbce5eb8e	-0.028066423
18	0xbe6c4ec0	-0.23076916
19	0x3d504178	0.050843686
20	0x3e5ec4f4	0.21754819
21	0xbdd12814	-0.102127224
22	0x3eba83b8	0.36428618
23	0xbd78f269	-0.060778055
24	0xbe0cd127	-0.1375166
25	0x3eb7d001	0.35900882
26	0x3dde7b9e	0.10863422
27	0x3e46dd4e	0.19420359
28	0x3ebe77ae	0.37200683
29	0xbe2d1821	-0.16903736
30	0xbe4058f3	-0.18783931
31	0xbd96e221	-0.073673494
32	0x3e7b0a03	0.24515538
33	0x3e69e298	0.22840345
34	0x3ea7eef1	0.32799485
35	0x3e1909d0	0.1494515
36	0xbe1c6cd3	-0.15275888
37	0x3e9d99e3	0.3078147
38	0xbe2ac599	-0.1667694
39	0x3e4b02e4	0.19825321
40	0x3eb09e32	0.34495693
41	0xbe918f5b	-0.28429684
42	0xbf45788a	-0.77137053
43	0x3d4c1a53	0.049829792
44	0xbc6f5f7f	-0.01461017
45	0x3e4d33ba	0.20039263
46	0xbeee1b82	-0.46505362
47	0x3e0e7f5b	0.1391577
48	0x3dbaa210	0.09112942
49	0x3bd9ff06	0.0066527156
50	0xbecf36b5	-0.40471426
51	0x3cd64864	0.026157565
52	0x3e96ed52	0.29477936
53	0x3f105aac	0.56388354
54	0xbf7788b5	-0.96692973
55	0xbe8b104d	-0.27160874
56	0x3df934f7	0.12168305
57	0x3dd63ee5	0.10461215
58	0x3da6cb54	0.081442505
59	0x3de84ee5	0.11343173
60	0xbe3700b2	-0.17871359
61	0x3e468f10	0.19390512
62	0x3dc19f83	0.094542526
63	0x3db71dc1	0.08941222
64	0x3ed567cf	0.41680762
65	0xbe5ca28a	-0.21546379
66	0xbeba92db	-0.36440167
67	0xbdd16f3a	-0.10226293
68	0xbe775f8b	-0.2415754
69	0xbe2b5485	-0.1673146
70	0xbd15f17f	-0.03660726
71	0xbdbb7207	-0.09152608
72	0xbe1a967c	-0.15096468
73	0xbed195f7	-0.40934727
74	0x3dde45b0	0.108531356
75	0x3edaee7b	0.4276007
76	0x3eca38f0	0.39496565
77	0xbd24dc8d	-0.040249396
78	0xbe8d5f2f	-0.27611682
79	0x3e0b7853	0.13620119
80	0xbf2f468e	-0.6846703
81	0x3e189af1	0.14902855
82	0xbd18a08e	-0.037262492
83	0xbe0576f9	-0.13033666
84	0xbe174945	-0.14774044
85	0x3e033b32	0.1281555
86	0x3ef016d1	0.46892408
87	0xbe26c52c	-0.16286153
88	0xbd51cc69	-0.05122033
89	0x3dff6409	0.12470252
90	0xbceb8a02	-0.02875233
91	0x3e983dbf	0.2973461
92	0xbe955d7f	-0.29172894
93	0x3d56ecda	0.052471973
94	0x3e738cc4	0.23784167
95	0x3d2968d0	0.041359723
96	0xbe656770	-0.2240274
97	0x3e33595e	0.1751456
98	0x3f0b7cd3	0.5448734
99	0x3e2a2175	0.16614325
100	0xbe8c4f71	-0.2740436
101	0xbe7594ea	-0.23982587
102	0xbec914de	-0.39273733
103	0xbe7c9d84	-0.24669462
104	0xbeb33a36	-0.3500535
105	0x3df46c2e	0.11934696
106	0xbe25a7ab	-0.16177242
107	0x3d12f8cc	0.035881802
108	0x3e5ca8a0	0.215487
109	0xbe9a0a19	-0.3008583
110	0x3e861db5	0.2619454
111	0xbe836232	-0.25660855
112	0x3e9b09e8	0.30280995
113	0x3d5b09fe	0.053476326
114	0x3e0835b5	0.13301738
115	0xbd16e8fa	-0.036843278
116	0x3d6273d0	0.05528623
117	0xbe8fe34e	-0.28103107
118	0x3e9e57ac	0.30926263
119	0xbcabb1e3	-0.020958846
120	0xbe434353	-0.19068651
121	0x3e5e045e	0.21681353
122	0xbcfe4673	-0.031039452
123	0x3e2a4a42	0.1662989
124	0x3e15ecef	0.14641164
125	0xbd9d4839	-0.07679791
126	0xbd903d23	-0.07042911
127	0xbd1af1af	-0.037828144

net.0.bias f4 [32]
0	0x3f17cb30	0.59294415
1	0xbe4a64ec	-0.19765061
2	0x3f19a237	0.60013145
3	0xbea9aa99	-0.33137968
4	0xbeb8dfe3	-0.36108312
5	0xbe60c3a8	-0.21949637
6	0x3f1ca8b2	0.6119491
7	0xbe825c3e	-0.25461
8	0x3efe70ba	0.4969538
9	0x3f299402	0.66241467
10	0x3c8aac0a	0.016927738
11	0xbeb728ae	-0.35773224
12	0xbdd4a4ca	-0.103829935
13	0xbeb400b5	-0.3515679
14	0xbe495809	-0.19662489
15	0x3ee908f6	0.4551465
16	0xbe86f4b0	-0.26358557
17	0xbe98346f	-0.29727504
18	0xbef9b6e8	-0.4877236
19	0xbf0f624f	-0.5600938
20	0xbf3a3254	-0.72733045
21	0x3ec755d7	0.38932678
22	0xbf434421	-0.7627583
23	0xbe37ca07	-0.17948161
24	0x3f4ca20f	0.7993478
25	0x3f24a61d	0.6431597
26	0xbe75aa68	-0.23990786
27	0x3f5448fe	0.8292388
28	0x3f09e367	0.53862613
29	0x3ee6c78e	0.45074123
30	0xbe2eb08a	-0.17059532
31	0xbdedfe40	-0.1162076

net.2.weight f4 [32, 32]
0	0x3d9828db	0.074296676
1	0xbd4f4def	-0.050611433
2	0x3ec5cebf	0.38634297
3	0x3e0dffd4	0.13867122
4	0x3cf8700f	0.030326871
5	0xbcb90e15	-0.022589723
6	0x3e4ce86d	0.20010538
7	0xbc86e359	-0.01646583
8	0x3e9f6ac4	0.31136143
9	0x3deadb9d	0.11467669
10	0x3ddabf95	0.106810726
11	0xbb8e17d3	-0.004336336
12	0x3d501c47	0.050808217
13	0xbe7e838a	-0.24854866
14	0x3db358b0	0.0875715
15	0x3e0f8855	0.1401685
16	0xbd897966	-0.06712608
17	0x3c19a01c	0.009376552
18	0xbde376ca	-0.111066416
19	0xbe43cc7c	-0.19120973
20	0x3d1c3920	0.038140416
21	0x3da71c9f	0.08159756
22	0xbc423df0	-0.011855587
23	0x3e0bc9d4	0.1365121
24	0x3e98b56b	0.2982591
25	0x3e60e38d	0.21961804
26	0xbd6a5c9f	-0.057217237
27	0x3ecbc465	0.39798275
28	0x3eb0dacc	0.3454193
29	0x3dafa3ce	0.08576165
30	0xbdb5230e	-0.08844577
31	0xbd00f438	-0.031482905
32	0x3da46559	0.08027143
33	0x3d95de56	0.07317798
34	0x3e98c24a	0.2983573
35	0xbc651fa9	-0.013984599
36	0xbe4c1694	-0.19930488
37	0x3e04a0be	0.12951943
38	0x3eab3b73	0.33443794
39	0xbc59c6fa	-0.013292069
40	0x3ea12332	0.31472164
41	0x3eabf956	0.33588666
42	0x3e8c9aa7	0.2746174
43	0xbc9dd7e9	-0.019267993
44	0x3dbbedef	0.091762416
45	0xbe2d1198	-0.16901243
46	0x3d4c195b	0.04982887
47	0x3e10da70	0.14145827
48	0xbe10da75	-0.14145835
49	0xbdfe470b	-0.12415894
50	0xbd5ec727	-0.054389145
51	0xbcb96fab	-0.022636255
52	0x3db09e61	0.086239584
53	0xbde66f45	-0.11251692
54	0xbe00621a	-0.12537423
55	0x3d84ac1c	0.0647814
56	0x3e5aa924	0.21353585
57	0x3e2812f5	0.16413482
58	0xbdb9be72	-0.09069528
59	0x3e84c7bd	0.25933638
60	0x3eb0fa89	0.34566143
61	0x3e79a766	0.24380264
62	0x3d835343	0.06412365
63	0x3e37e084	0.1795674
64	0x3e1267e7	0.14297448
65	0x3be027a9	0.0068406654
66	0xbd9eaa47	-0.077473216
67	0xbd6a550f	-0.057210024
68	0xbdc2cb20	-0.09511399
69	0xbe10cda0	-0.1414094
70	0xbddf9777	-0.109175615
71	0xbd8e0aa2	-0.06935622
72	0xbe178c5c	-0.14799637
73	0x3e128928	0.14310133
74	0x3d9a0090	0.075196385
75	0x3d0a85b1	0.033818904
76	0x3db8b94d	0.09019718
77	0xbd0af0c6	-0.033921026
78	0xbd9a0b0c	-0.07521638
79	0xbda56a56	-0.080769226
80	0x3e249106	0.16070947
81	0xbd465e8d	-0.048430014
82	0x3d0de736	0.034644328
83	0xbde6918d	-0.1125823
84	0x3dde011f	0.108400576
85	0x3cb0ad4a	0.021567006
86	0xbe1e411c	-0.15454525
87	0xbbe08669	-0.0068519604
88	0xbd83c3b3	-0.06433811
89	0xbe01b9a1	-0.12668468
90	0xbdc5b725	-0.09654073
91	0x3cc76f30	0.02434501
92	0x3c053423	0.008130106
93	0xbe1881f5	-0.14893325
94	0xbd5aff3f	-0.053466078
95	0x3e10a01b	0.14123575
96	0xbe3d5d35	-0.18492587
97	0xbe16aec1	-0.14715101
98	0xbd38a172	-0.04507584
99	0x3d6aa8ea	0.057289995
100	0x3de15dfe	0.11004256
101	0xbe657073	-0.22406177
102	0x3d01d50e	0.031697325
103	0xbe140f2f	-0.14458917
104	0xbe482aea	-0.1954762
105	0xbdb44216	-0.088016674
106	0xbe2d0a05	-0.16898353
107	0x3daf754d	0.08567295
108	0x3c7ea7a7	0.015542901
109	0xbd8ec696	-0.06971471
110	0xbded6a0e	-0.11592494
111	0x3db64e46	0.08901648
112	0xbe0685e9	-0.1313702
113	0x3d122808	0.035682708
114	0x3e009527	0.12556897
115	0x3ba1246f	0.0049176733
116	0xbe0a8b81	-0.13529779
117	0x3d3151dc	0.043290958
118	0xbd9ef0f5	-0.07760803
119	0xbe48cccc	-0.19609374
120	0x3ca37703	0.01995421
121	0xbe5292dd	-0.20563836
122	0xbc03870b	-0.008027802
123	0xbe042b4d	-0.12907143
124	0xbdf8ec4a	-0.121544436
125	0x3e046ff2	0.12933329
126	0xbb9a5d44	-0.004710825
127	0xbe197527	-0.14986096
128	0xbd64dd2a	-0.05587498
129	0xbc6e04b8	-0.014527492
130	0x3dc017f1	0.093795665
131	0x3bcf4e21	0.0063264524
132	0xbd5e9e27	-0.054350045
133	0x3cf1b16c	0.029503547
134	0xbc696ac7	-0.014246649
135	0xbcef8ab2	-0.02924094
136	0x3dc87910	0.09788716
137	0xbe59d243	-0.21271615
138	0xbe070f23	-0.13189368
139	0x3c9b2da0	0.018942654
140	0x3dc827c5	0.097732104
141	0xbd80b38a	-0.06284244
142	0xbd717863	-0.0589527
143	0xbd271b49	-0.040797506
144	0x3c36bfdd	0.011154142
145	0x3cafc0ce	0.021454241
146	0x3dd37ccd	0.10326538
147	0x3d01f861	0.031731013
148	0xbe302d11	-0.17204691
149	0xbdcaadec	-0.09896454
150	0xbe132036	-0.14367756
151	0x3deca039	0.115539975
152	0xbda47bc2	-0.080314174
153	0xbdd76f6f	-0.10519301
154	0x3ddb96bf	0.10722112
155	0x3db9105a	0.09036322
156	0xbe415c7d	-0.18882938
157	0xbd0420b4	-0.03225775
158	0xbe290d6c	-0.16509026
159	0xbe48979d	-0.19589086
160	0xbd95b2fc	-0.07309529
161	0x3e29985f	0.16562031
162	0x3cd6b07d	0.026207203
163	0xbd301412	-0.04298789
164	0xbd9f6b85	-0.077841796
165	0xbdc33b7d	-0.09532831
166	0xbdce567c	-0.10075089
167	0x3d438f01	0.0477438
168	0xbcb00ece	-0.021491434
169	0x3cb0e2af	0.021592466
170	0xbe113843	-0.14181618
171	0xbafbe154	-0.0019216933
172	0xbe1ef17f	-0.15521811
173	0xbddba6d1	-0.10725177
174	0xbddacb77	-0.10683339
175	0x3deebf92	0.11657633
176	0xbe023be5	-0.1271816
177	0xbd28364b	-0.041067403
178	0xbde534c8	-0.11191708
179	0xbdcff1e2	-0.10153557
180	0xbe10b526	-0.14131603
181	0xbe2c269d	-0.16811605
182	0x3e1bacc1	0.15202619
183	0xbe1e452a	-0.15456071
184	0x3d3df9bb	0.04638074
185	0x3caf9547	0.021433486
186	0xbdbda54b	-0.09260043
187	0xbc890e6d	-0.016730512
188	0x3e05f41e	0.13081405
189	0xbe23e3c9	-0.16004862
190	0x3e24174a	0.16024509
191	0x3df02d73	0.11727419
192	0x3e907b51	0.28219083
193	0x3e1fd81e	0.15609786
194	0x3de7bf4a	0.11315782
195	0xbd6ee196	-0.058320604
196	0xbe1957f2	-0.14974955
197	0x3d008c10	0.031383574
198	0x3e37766e	0.17916271
199	0xbd3b5d7e	-0.045743458
200	0xbcd8eaf9	-0.026479231
201	0x3ea43f69	0.32079628
202	0x3e778f05	0.24175651
203	0xbdd1c5fc	-0.10242841
204	0xbe664281	-0.22486307
205	0xbeabd41d	-0.33560267
206	0xbc427814	-0.011869449
207	0x3d716980	0.058938503
208	0x3de6849e	0.112557635
209	0x3e0f14bc	0.13972753
210	0xbea2d001	-0.3179932
211	0xbc9a9e51	-0.01887432
212	0x3d94ef59	0.072722144
213	0x3de9b7b5	0.114119925
214	0xbe0862e3	-0.13318972
215	0x3db6796a	0.08909877
216	0x3e269287	0.16266833
217	0x3e07bee1	0.13256408
218	0xbe017ec7	-0.12646018
219	0x3ec8e622	0.39238077
220	0x3d9d5c27	0.07683592
221	0x3d123766	0.035697363
222	0xbe242e39	-0.16033258
223	0x3d84dbac	0.064872116
224	0x3dc39985	0.09550766
225	0x3d43178d	0.04762988
226	0x3d65ed9a	0.056134798
227	0xbc0e1377	-0.008671633
228	0xbd0ee9de	-0.034891002
229	0x3d4ee596	0.05051192
230	0x3e3f54e9	0.18684734
231	0xbe117795	-0.14205773
232	0x3e0b7102	0.13617328
233	0x3e813169	0.2523301
234	0x3e6374ad	0.22212477
235	0x3e03c4a0	0.12867975
236	0x3ddfbae4	0.109243184
237	0xbdbff8f2	-0.093736544
238	0x3d96bc6d	0.07360158
239	0x3beb005d	0.007171674
240	0xbc0cba0c	-0.008589279
241	0x3c4de29b	0.012566234
242	0xbdb5a951	-0.08870185
243	0x3da4b8af	0.08043038
244	0xbc8b3d09	-0.016996877
245	0x3e26128c	0.16218013
246	0xbd21b7aa	-0.039481796
247	0xbcfeb298	-0.03109102
248	0x3e302fd6	0.17205748
249	0x3e8c777d	0.27434912
250	0x3d8d0e01	0.06887437
251	0x3e8dbddd	0.27683917
252	0x3e8f91c0	0.28040886
253	0x3d18a705	0.037268657
254	0xbcb6cc6b	-0.022314271
255	0xbdf86fa8	-0.12130672

net.2.bias f4 [32]
0	0x3f04dc44	0.518986
1	0x3ec8684a	0.39142066
2	0xbda145b6	-0.078746244
3	0x3d691ea8	0.056914
4	0xbe18e853	-0.14932375
5	0xbdba40ee	-0.090944156
6	0x3eaa4155	0.3325297
7	0x3f0423bf	0.51617044
8	0x3e381800	0.17977905
9	0x3ec9fd79	0.39451197
10	0x3f005c81	0.5014115
11	0x3ece0410	0.40237474
12	0xbd33e501	-0.043919567
13	0x3da16106	0.07879834
14	0xbe021b4f	-0.1270573
15	0x3d5d5319	0.054034326
16	0xbb5b21b9	-0.0033436848
17	0x3f17ab2f	0.5924558
18	0x3f18d7ed	0.59704477
19	0xbd9934e7	-0.074807934
20	0x3e820e9a	0.25401765
21	0x3ecf1c1f	0.40451142
22	0xbe1c7809	-0.15280165
23	0x3d3a7ca5	0.045529027
24	0xbe3f8f99	-0.18707122
25	0x3e945f25	0.2897884
26	0x3eb8ebc2	0.3611737
27	0x3ec71220	0.38881016
28	0x3f11192f	0.5667905
29	0xbe1260e7	-0.14294778
30	0x3ede8f37	0.4346864
31	0xbdb8e37a	-0.09027763

net.4.weight f4 [2, 32]
0	0x3eb5e2b9	0.35524538
1	0x3e8cf251	0.27528623
2	0xbd7724bb	-0.060337763
3	0x3c0e6c6c	0.008692842
4	0xbc93fd93	-0.01806525
5	0x3e248fdc	0.16070503
6	0x3e293b7c	0.16526598
7	0x3e4cd32e	0.20002434
8	0x3e2a3fd2	0.16625908
9	0x3e984216	0.2973792
10	0x3e9d1691	0.3068128
11	0x3eb86c1a	0.36019975
12	0x3c3bc9b4	0.011461664
13	0x3b3dfc47	0.002898948
14	0xbbf6f1a5	-0.0075361305
15	0xbd4a9286	-0.049456142
16	0xbe4e6b28	-0.20158064
17	0x3ea244cb	0.3169311
18	0x3eaec07f	0.34131238
19	0x3c80f965	0.01574392
20	0x3e288f26	0.16460857
21	0x3ebf7136	0.3739106
22	0x3d8d7405	0.069068946
23	0xbcfcb4c7	-0.03084792
24	0xbe1a6dc2	-0.15080932
25	0x3c2758f5	0.01021408
26	0x3ea66912	0.32502037
27	0x3e272003	0.16320805
28	0x3e8d162a	0.27555972
29	0x3d912219	0.07086582
30	0x3ea6e745	0.3259832
31	0xbdaf5f32	-0.08563079
32	0x3e6ea0fb	0.23303597
33	0x3e9b1f90	0.30297518
34	0xbc2e38c2	-0.010633649
35	0x3c394b16	0.011309406
36	0xbd03f6bc	-0.032217726
37	0x3df4cd4a	0.11953218
38	0x3e7404d2	0.23829964
39	0x3e68662f	0.2269523
40	0x3e423aa7	0.18967687
41	0x3e14a556	0.14516196
42	0x3eb3d4d9	0.35123327
43	0x3e996e46	0.29966944
44	0xbdfd9166	-0.12381248
45	0xbd5d990e	-0.054101042
46	0xbddc651c	-0.107614726
47	0xbe0543e0	-0.13014174
48	0xbd576784	-0.052588955
49	0x3ebcb318	0.36855388
50	0x3eae00be	0.3398494
51	0x3d0b04ad	0.033940006
52	0x3e9898cc	0.29804075
53	0x3eb43f91	0.35204747
54	0xbd9b33d5	-0.075782456
55	0x3c92c27e	0.017915007
56	0xbc67e49f	-0.014153629
57	0xbacedcf0	-0.0015782397
58	0x3e250648	0.16115677
59	0x3eab5566	0.3346359
60	0x3ea6271a	0.32451707
61	0x3c2ef3e1	0.010678262
62	0x3eae32d4	0.34023154
63	0x3df20311	0.11816991

net.4.bias f4 [2]
0	0x3f02dd24	0.51118684
1	0x3ed42fdd	0.41442767
